checkpoint_actor.pth (torch_old, 86445 bytes, 6 tensors)

fc1.weight f4 [128, 33]
0.113727756 -0.32990348 0.016654527 0.05164242 0.18872935 -0.0077507603 0.08125177 0.009294396
-0.14809331 0.07630568 0.040338676 -0.09086797 0.112847395 0.08270393 0.3123826 0.07700251
-0.029324343 0.06122791 -0.08451484 0.0018473503 0.01556802 0.017780153 0.13685857 -0.0143136075
0.061820306 0.046880536 -0.19574009 -0.0017460982 -0.17815869 -0.011835538 0.086531684 -0.054728672
-0.13979393 -0.057235233 0.24905144 -0.11632935 0.079153694 -0.25707975 0.13686295 -0.03807298
0.1257005 0.24120942 -0.11533278 0.052594475 0.21611483 0.15017971 -0.104701675 -0.06769715
0.29151243 -0.02271782 -0.0077764858 -0.016461082 -0.023651067 0.16696982 0.06524118 -0.12083887
0.021612396 -0.012446873 0.22761707 -0.14191733 0.014334198 -0.17639394 -0.06032259 -0.0048673223
-0.034492347 -0.026217287 -0.128449 -0.00024880515 -0.24669017 -0.010918514 0.09379758 0.10622639
-0.05609861 -0.010141894 0.04453391 -0.10779128 0.012520511 0.018177817 -0.014466498 0.19170398
0.040904906 0.08076429 -7.671016e-05 0.035695508 -0.0082654 0.0240743 0.017802317 0.049716696
0.035698976 0.050428018 -0.018009344 0.036743518 -0.10579765 -0.12545998 -0.03754298 -0.062163703
0.13265546 0.08344149 2.0273764 0.2137114 -0.23312674 -0.049551662 -0.006372066 -0.015243046
-0.0277179 0.0071282345 0.09897884 -0.13854952 -0.08002719 0.080742374 -0.039230324 0.03197561
0.030179506 0.06212161 0.0027504135 -0.011378152 0.046462152 0.06941498 -0.01955077 0.06650808
0.11445108 -0.02110166 0.094822615 -0.086242594 0.0007398482 -0.10572969 -0.13259803 0.25691602
-0.010008022 0.19891986 0.002295792 0.30140463 -0.10727662 0.06831552 -0.0027593141 0.0023429794
0.18143184 -0.021564325 -0.05117571 0.07783753 0.06441588 -0.051786367 -0.007160462 -0.010467886
0.030753458 0.02749795 0.004075786 0.012897638 -0.01451679 0.028529186 -0.07271276 -0.031403143
0.010398106 -0.038492262 0.011712015 -0.025662817 -0.019458741 -0.0072050854 0.22790104 0.2942457
0.12532905 0.072098576 -0.17492379 -0.0024613366 -3.2570436 -0.10862911 0.06720609 -0.18574463
0.052383434 -0.08255035 0.08525829 -0.16707063 0.09532519 -0.11510342 -0.32256082 0.10094951
-0.105274454 0.11445831 0.24365172 -0.14374706 0.20315169 -0.04471035 -0.035343625 -0.02440251
0.056557525 0.048134435 -0.10348419 -0.15391126 0.16378532 -0.24017394 0.11550463 -0.0048256232
-0.026693793 -0.2010804 -0.043028023 0.039660104 -0.030286178 0.3882149 0.019313099 0.10892661
0.2621388 0.13091809 0.00914257 0.31147316 0.22704224 0.09808244 0.016980002 0.18150304
0.10232278 0.025856407 -0.086104855 -0.01831943 0.05969561 -0.09074903 0.0755046 -0.01565695
-0.08987772 -0.014162112 -0.0020471746 -0.006020941 0.037874687 -0.0966719 -0.10342577 -0.20966382
0.029453047 0.10790462 -0.19411352 -0.022760838 -0.11277991 -0.014444672 1.1556032 -0.063087896
-0.0381626 -0.013084384 0.06739687 -0.2172089 -0.07061289 -0.027871922 0.013450832 0.2320929
0.037587754 0.024790864 0.014581872 -0.03995927 -0.06315512 0.051928923 0.07044846 0.031283617
0.03656162 0.014106657 0.01883613 -0.019281728 0.019657714 -0.03240198 -0.008725216 4.3372063e-05
00000000: 19ea e83d 1ce9 a8be 136f 883c 0187 533d
00000010: 4442 413e 17fa fdbb 5467 a63d 8647 183c
00000020: c6a5 17be 2746 9c3d 2b3a 253d fc18 babd
00000030: 891c e73d ae60 a93d 9df0 9f3e 7eb3 9d3d
00000040: 9b39 f0bc 1eca 7a3d 1e16 adbd ca22 f23a
00000050: 0211 7f3c afa7 913c a724 0c3e 9f83 6abc
00000060: 4a37 7d3d ce05 403d 1770 48be 55dd e4ba
00000070: 3b6f 36be d8e9 41bc 8637 b13d 2c2b 60bd
00000080: 2426 0fbe 7e6f 6abd 5707 7f3e 153e eebd
00000090: 551b a23d f59f 83be cd25 0c3e 6af2 1bbd
000000a0: a2b7 003e 9aff 763e 9833 ecbd 4e6d 573d
000000b0: 354d 5d3e b6c8 193e d56d d6bd cea4 8abd
000000c0: 1e41 953e b91a babc e4d1 febb 64d9 86bc
000000d0: e2bf c1bc 23fa 2a3e 2b9d 853d 5f7a f7bd
000000e0: 7b0c b13c f8ed 4bbc 7314 693e c752 11be
000000f0: fcd9 6a3c 9da0 34be d214 77bd 0f7e 9fbb
00000100: d947 0dbd a3c5 d6bc 2288 03be 1072 82b9
00000110: 599c 7cbe 91e3 32bc f218 c03d 398d d93d
00000120: a8c7 65bd 302a 26bc 3069 363d adc1 dcbd
00000130: d422 4d3c a5e9 943c e404 6dbc 0c4e 443e
00000140: e78b 273d c067 a53d 74df a0b8 7435 123d
00000150: 9a6b 07bc 7737 c53c 2ad6 913c bca3 4b3d
00000160: 1739 123d 9c8d 4e3d 5588 93bc 5f80 163d
00000170: 70ac d8bd 9578 00be abc6 19bd 5e9f 7ebd
00000180: d5d6 073e 5fe3 aa3d 89c0 0140 29d7 5a3e
00000190: c7b8 6ebe aff6 4abd c4cc d0bb f8bd 79bc
000001a0: a610 e3bc f793 e93b 6bb5 ca3d eddf 0dbe
000001b0: 4ce5 a3bd 425c a53d faaf 20bd dbf8 023d
000001c0: 033b f73c 3b73 7e3d 4840 343b 6e6b 3abc
000001d0: 194f 3e3d 7129 8e3d f028 a0bc 6335 883d
000001e0: 5465 ea3d 63dd acbc 5c32 c23d f59f b0bd
000001f0: 5ff2 413a cf88 d8bd c7c7 07be 7f8a 833e
00000200: b0f8 23bc a6b1 4b3e 0075 163b b551 9a3e
00000210: d8b3 dbbd 02e9 8b3d 9cd5 34bb ac8c 193b
00000220: 45c9 393e aba7 b0bc 9f9d 51bd 4869 9f3d
00000230: 79ec 833d f11d 54bd 4fa2 eabb 7f81 2bbc
00000240: adee fb3c 6143 e13c 2c8e 853b 9d50 533c
00000250: d5d7 6dbc 0ab6 e93c 6dea 94bd 95a0 00bd
00000260: d15c 2a3c 10aa 1dbd c0e3 3f3c d43a d2bc
00000270: f067 9fbc a318 ecbb e45e 693e 5fa7 963e
00000280: 4256 003e 6ba8 933d 391f 33be 604e 21bb
00000290: 6773 50c0 f078 debd 59a3 893d d733 3ebe
000002a0: 0390 563d 2810 a9bd e69b ae3d 9014 2bbe
000002b0: da39 c33d 58bb ebbd b126 a5be 9ebe ce3d
000002c0: 229a d7bd 1e69 ea3d d67f 793e 6e32 13be
000002d0: ff06 503e 3322 37bd 7ac4 10bd c6e7 c7bc
000002e0: dda8 673d 9d28 453d 85ef d3bd ea9a 1dbe
000002f0: 57b7 273e 28f0 75be b18d ec3d 4320 9ebb
00000300: f1ac dabc 05e8 4dbe 273e 30bd a272 223d
00000310: b81a f8bc 1ac4 c63e 8136 9e3c ea14 df3d
00000320: 0f37 863e 640f 063e b8ca 153c 6979 9f3e
00000330: c37d 683e 72df c83d a519 8b3c efdb 393e
00000340: 9b8e d13d d1d0 d33c be57 b0bd a112 96bc
00000350: 6283 743d a1da b9bd 28a2 9a3d 0143 80bc
00000360: cf11 b8bd 3408 68bc e429 06bb 504b c5bb
00000370: 7d22 1b3d ebfb c5bd e4d0 d3bd 1db2 56be
00000380: 8447 f13c 19fd dc3d b2c5 46be f074 babc
00000390: 27f9 e6bd 58a9 6cbc ceea 933f 3a34 81bd
000003a0: 6350 1cbd e25f 56bc 5f07 8a3d 036c 5ebe
000003b0: 7e9d 90bd a853 e4bc e160 5c3c c3a9 6d3e
000003c0: 9ef5 193d 3616 cb3c cee8 6e3c 55ac 23bd
000003d0: 7957 81bd 6cb3 543d 4847 903d 4023 003d
000003e0: a3c1 153d 9c1f 673c 3a4e 9a3c b7f4 9dbc
000003f0: 3709 a13c f0b7 04bd 35f4 0ebc 66ea 3538

fc1.bias f4 [128]
-0.091086075 -0.10456476 0.2521022 0.19440527 -0.22272524 -0.17381209 0.040465806 -0.1003649
-0.026247643 -0.012663866 -0.1485684 0.24851164 0.00246194 -0.11851331 0.052743305 -0.19365482
-0.06359343 -0.43304133 -0.1098395 0.1268888 0.025103083 -0.22636846 0.23182686 -0.039702818
0.1596937 -0.063784674 0.12269607 0.047827054 -0.22064404 0.025002247 -0.07213056 0.083489984
0.12370377 -0.042467035 -0.20257708 -0.024002286 0.05995359 -0.2988174 -0.2560704 -0.061425902
-0.20790614 0.14326462 -0.48257974 0.012774851 -0.018313674 -0.025105279 0.20998815 0.18846428
-0.08466987 -0.20824943 -0.06081142 -0.09017836 0.032401104 -0.28485504 -0.061333276 0.28450292
0.19471416 -0.17285283 -0.010911116 -0.052221987 0.2578981 -0.07247818 0.101195574 0.0949956
0.19440317 0.12532277 -0.18108474 0.1234519 -0.09531867 0.043017074 -0.038460903 -0.07681148
-0.12828046 0.11685046 -0.28038853 -0.04735575 0.08699561 -0.06451343 -0.1404254 -0.006479806
-0.035210382 0.23807488 -0.05012653 -0.15275809 0.23343255 -0.11375391 -0.21024162 0.032304835
0.032513604 -0.046244107 -0.19936244 0.17157562 0.0027695887 0.07325504 0.11167335 -0.2129673
0.05402439 -0.217624 0.12803642 -0.060555987 -0.3276765 0.038804486 -0.32023174 -0.06894207
-0.070524745 0.12329869 0.021220546 -0.40484634 0.03347174 0.103462406 0.010814202 -0.31456822
-0.2748938 0.07083336 0.028849946 -0.045975886 -0.1132446 0.010671618 0.07946307 0.0040888083
0.07679272 0.15865237 -0.20460184 0.08434635 -0.1522728 0.3676142 -0.2567378 0.013669377
00000000: 568b babd 0d26 d6bd 8a13 813e 2d12 473e
00000010: 1612 64be ccfb 31be 79bf 253d 1d8c cdbd
00000020: 4c05 d7bc 1b7c 4fbc 5122 18be d679 7e3e
00000030: 8058 213b 1bb7 f2bd 5d09 583d 734d 46be
00000040: 463d 82bd 98b7 ddbe 88f3 e0bd 23ef 013e
00000050: fba4 cd3c 22cd 67be 0564 6d3e 6c9f 22bd
00000060: bf86 233e 8aa1 82bd 1448 fb3d 4de6 433d
00000070: 83f0 61be 83d1 cc3c 30b9 93bd ccfc aa3d
00000080: 6758 fd3d eaf1 2dbd 5e70 4fbe 71a0 c4bc
00000090: e591 753d 98fe 98be a91b 83be ba99 7bbd
000000a0: 59e5 54be f6b3 123e b114 f7be 9c4d 513c
000000b0: 8f06 96bc 96a9 cdbc 2207 573e c8fc 403e
000000c0: 6667 adbd 573f 55be 6515 79bd 6faf b8bd
000000d0: 05b7 043d 85d8 91be 9a38 7bbd 5eaa 913e
000000e0: 2663 473e 5500 31be 8ac4 32bc b9e6 55bd
000000f0: 380b 843e 716f 94bd a03f cf3d 0e8d c23d
00000100: a011 473e 9d54 003e 476e 39be 5ad4 fc3d
00000110: 6f36 c3bd ac32 303d 2e89 1dbd 564f 9dbd
00000120: f45b 03be 4b4f ef3d 168f 8fbe 1af8 41bd
00000130: c12a b23d 9e1f 84bd adcb 0fbe 8d54 d4bb
00000140: c338 10bd e7c9 733e 7a51 4dbd 9e6c 1cbe
00000150: f108 6f3e cff7 e8bd 9449 57be 1352 043d
00000160: fc2c 053d 766a 3dbd ab25 4cbe 85b1 2f3e
00000170: fd81 353b bd06 963d ffb4 e43d 1a14 5abe
00000180: ae48 5d3d d3d8 5ebe fb1b 033e 8e09 78bd
00000190: 37c5 a7be 74f1 1e3d 6af5 a3be 8031 8dbd
000001a0: 476f 90bd 0684 fc3d b6d6 ad3c 0548 cfbe
000001b0: aa19 093d 19e4 d33d 0d2e 313c 160f a1be
000001c0: e1be 8cbe 1511 913d b956 ec3c 3651 3cbd
000001d0: c9ec e7bd 03d8 2e3c 89bd a23d 69fb 853b
000001e0: 8045 9d3d c475 223e 2583 51be c7bd ac3d
000001f0: 67ed 1bbe ee37 bc3e 2373 83be 86f5 5f3c

fc2.weight f4 [128, 128]
-0.21942246 -0.031459317 -0.020344084 0.101954415 -1.1268036 0.224624 -0.04420179 -0.39584574
-0.28040266 0.19148262 -0.23577155 0.14673498 0.2779242 0.04529007 0.24339874 -0.10315789
-0.25102022 -0.45922506 -0.09632566 -0.2168652 0.019051185 0.011171193 -0.1639833 -0.62038994
-0.009296766 0.02826437 -0.12367348 0.043900926 -0.10415478 -0.054859884 0.12114636 -0.15923102
-0.15187012 0.120643504 -0.2635745 -0.35431963 0.22316352 -0.32935303 0.24186476 0.28639013
-0.20176059 0.22939824 -0.1523169 -0.13107085 -0.020205457 0.10663518 -0.09596097 -0.026203671
-0.32166988 0.30802804 0.05780789 0.04002744 0.20572487 0.1657063 0.44533375 0.05638012
-0.3900935 0.004800303 -0.5973115 -0.08514133 0.10730584 -0.055989895 -0.0060931584 -0.1181122
0.011799043 0.35985136 -0.04448598 -0.13738558 0.19007842 -0.05480604 0.57141256 0.111415625
0.09413745 -0.018099068 -0.31560358 0.37805787 0.13008183 0.0673626 0.03701632 -0.098211296
0.3315486 -0.034426246 -0.25169381 -0.0058804895 -0.27000165 0.10938783 0.06424872 0.099212274
-0.042077303 -0.032250755 -0.39593223 -0.1059121 -0.2278328 -0.08491023 0.040224694 0.08190025
-0.08761238 -0.29134813 0.079314776 -0.25326934 -0.027429542 0.06557636 -0.21255064 0.13556874
-0.067083195 0.008460918 0.08026212 0.31644028 0.07265505 0.097537704 -0.16889109 0.055593546
0.17491068 0.0441955 0.004377579 0.16452387 -0.14180638 0.25063255 0.0035806156 -0.038102202
-0.44229507 0.041035973 0.0023445312 -0.14985499 0.08618689 -0.052855216 -0.12651627 -0.057093576
-0.18672587 0.019871341 0.12969281 -0.10342066 0.0661124 0.14714448 -0.0019382328 0.19890492
0.024856225 -0.0660097 0.17559168 0.034400057 -0.11216578 -0.027174316 -0.056950383 -0.034027454
-0.0675501 0.15048869 0.016443215 0.018921226 -0.081648104 -0.05561842 -0.03263395 0.19186516
0.10347011 0.13297348 -0.030223697 0.25193185 0.15534115 -0.0154846925 -0.048619315 -0.050689492
-0.00549349 0.054927792 0.08074763 0.022534728 0.1005263 -0.07246098 -0.07358354 0.121802546
0.24113534 -0.08752665 -0.021578047 -0.0035668714 -0.012674797 -0.14347522 -0.020984596 0.0809237
0.15734464 0.15477872 0.16872978 0.13127683 0.04909126 -0.011757421 0.14444298 0.008950911
-0.13387078 -0.042046025 0.06920113 0.004830499 -0.043152206 -0.019008888 -0.06746567 -0.15034455
-0.17945342 0.018234866 0.24797666 -0.07347207 0.074162155 -0.04335454 0.049050357 -0.019022165
0.30230626 -0.2127537 0.09757326 0.16127764 -0.00024937588 -0.053195935 0.040454496 -0.006401737
-0.020498376 0.018300265 -0.14336699 0.0010347228 -0.017332168 -0.042626724 0.053964194 0.09512435
-0.031946488 0.037654217 0.028024055 0.04901082 -0.21822457 0.105618216 0.07727737 -0.013379931
0.17919815 -0.067928545 0.05619395 -0.036544222 0.010195035 -0.06483899 0.29836825 -0.11409539
-0.12619272 -0.039913885 0.14638333 0.15299523 -0.12319391 -0.14449139 0.07759631 -0.1482489
-0.019083975 -0.21406187 -0.05609807 0.17262231 -0.057527017 0.1571822 0.07497206 -0.062142454
0.0797489 -0.086755835 0.1992397 -0.03184133 -0.10493234 -0.13458458 0.09479105 -0.06486963
00000000: 48b0 60be 7cdb 00bd a3a8 a6bc 7acd d03d
00000010: 1a3b 90bf d503 663e f00c 35bd 4bac cabe
00000020: f090 8fbe 0514 443e 196e 71be b241 163e
00000030: 154c 8e3e 1582 393d 853d 793e 7244 d3bd
00000040: b985 80be 8c1f ebbe 6346 c5bd e911 5ebe
00000050: 3b11 9c3c 6107 373c 3deb 27be e0d1 1ebf
00000060: 7651 18bc ae8a e73c 8548 fdbd 75d1 333d
00000070: 1a4f d5bd c2b4 60bd 951b f83d 750d 23be
00000080: d783 1bbe f113 f73d 3df3 86be 6269 b5be
00000090: fa84 643e f6a0 a8be 65ab 773e baa1 923e
000000a0: 549a 4ebe 5fe7 6a3e f6f8 1bbe 7037 06be
000000b0: ea85 a5bc 8c63 da3d 2f87 c4bd 15a9 d6bc
000000c0: eab1 a4be dab5 9d3e f7c7 6c3d d0f3 233d
000000d0: 8aa9 523e eaae 293e c902 e43e d7ee 663d
000000e0: 56ba c7be dc4b 9d3b 68e9 18bf 945e aebd
000000f0: 2ac3 db3d a955 65bd 1ea9 c7bb cfe4 f1bd
00000100: c650 413c 703e b83e ee36 36bd ceae 0cbe
00000110: eba3 423e 4c7c 60bd 1848 123f e02d e43d
00000120: 23cb c03d 7f44 94bc cb96 a1be cd90 c13e
00000130: 2c34 053e 67f5 893d 6d9e 173d 0123 c9bd
00000140: bdc0 a93e 8902 0dbd 03de 80be 1fb1 c0bb
00000150: a83d 8abe ba06 e03d d594 833d ce2f cb3d
00000160: 4059 2cbd 5e19 04bd a1b7 cabe 71e8 d8bd
00000170: 004d 69be 6ae5 adbd a6c2 243d 51bb a73d
00000180: 1f6e b3bd 952b 95be c96f a23d 85ac 81be
00000190: ebb3 e0bc e64c 863d e0a6 59be 88d2 0a3e
000001a0: ea62 89bd aa9f 0a3c 7760 a43d 7604 a23e
000001b0: 2ccc 943d d9c1 c73d c9f1 2cbe 0fb6 633d
000001c0: c91b 333e 5706 353d cb71 8f3b f278 283e
000001d0: b135 11be e952 803e c3a8 6a3b 0e11 1cbd
000001e0: 8074 e2be 5615 283d b5a6 193b 9673 19be
000001f0: c182 b03d b67e 58bd 7b8d 01be f4da 69bd
00000200: 1135 3fbe 39c9 a23c 31ce 043e 36ce d3bd
00000210: f065 873d 0bad 163e 4d0c feba bbad 4b3e
00000220: 489f cb3c 1830 87bd 4ece 333e 13e7 0c3d
00000230: 2cb7 e5bd ac9c debc ce44 69bd 5f60 0bbd
00000240: b557 8abd b519 1a3e ecb3 863c b000 9b3c
00000250: 1f37 a7bd 24d0 63bd 2dab 05bd 4d78 443e
00000260: 23e8 d33d 332a 083e b097 f7bc 36fd 803e
00000270: c011 1f3e 82b3 7dbc 0c25 47bd c99f 4fbd
00000280: bc02 b4bb f7fb 603d 035f a53d c09a b83c
00000290: bce0 cd3d 6c66 94bd f8b2 96bd 9d73 f93d
000002a0: 2fec 763e 2c41 b3bd 72c4 b0bc 2cc2 69bb
000002b0: f4a9 4fbc 2beb 12be e3e7 abbc 53bb a53d
000002c0: f41e 213e 507e 1e3e 80c7 2c3e 6f6d 063e
000002d0: eb13 493d 33a2 40bc dce8 133e d8a6 123c
000002e0: 6c15 09be 7438 2cbd 52b9 8d3d 2a49 9e3b
000002f0: 5ec0 30bd 87b8 9bbc 712b 8abd ecf3 19be
00000300: a3c2 37be 4961 953c 98ed 7d3e 8678 96bd
00000310: 54e2 973d 8894 31bd 07e9 483d 5fd4 9bbc
00000320: e3c7 9a3e 1bdc 59be 7dd4 c73d f725 253e
00000330: aabe 82b9 fbe3 59bd 9db3 253d aac5 d1bb
00000340: 36ec a7bc 70ea 953c ccce 12be 899f 873a
00000350: 31fc 8dbc 5c99 2ebd 8f09 5d3d 8ed0 c23d
00000360: 52da 02bd 4f3b 1a3d b492 e53c 92bf 483d
00000370: 4376 5fbe 5d4e d83d 9943 9e3d 8037 5bbc
00000380: b87f 373e 1f1e 8bbd a12b 663d 65af 15bd
00000390: 1309 273c 4eca 84bd b9c3 983e d8aa e9bd
000003a0: aa38 01be be7c 23bd 83e5 153e c8aa 1c3e
000003b0: 174d fcbd 8df5 13be d0ea 9e3d 8fce 17be
000003c0: ff55 9cbc 0933 5bbe 17c7 65bd e7c3 303e
000003d0: 73a1 6bbd 5ff4 203e f48a 993d 1689 7ebd
000003e0: 6453 a33d 0bad b1bd 7e05 4c3e 0e6c 02bd
000003f0: c4e6 d6bd 8ad0 09be cf21 c23d 5eda 84bd

fc2.bias f4 [128]
0.07711354 0.055439305 -0.0004681682 0.06206772 -0.025584724 0.0508969 -0.040851876 -0.11936504
0.0052962843 0.09737312 0.09210016 0.022897447 -0.014144343 -0.09746494 0.093304835 -0.08765371
0.06132174 0.031273164 -0.037319247 -0.072242364 0.010876814 0.06541759 -0.06310462 0.10143187
0.09189666 0.04203747 -0.07161301 -0.025366817 -0.024877293 -0.049496036 0.037559696 -0.0018321923
0.00800949 -0.059744995 -0.038957644 0.0007622675 0.021963442 -0.0661988 0.0361375 -0.07005583
-0.070097096 0.106707424 -0.023680711 -0.023468468 0.08555084 0.013675115 0.10218959 -0.06864236
0.025748728 -0.047136854 -0.0068121566 0.11974436 -0.057591718 0.036130108 0.09512078 -0.04607308
-0.012904123 -0.10910108 0.038992554 0.08507904 0.008069325 0.037424874 0.14675829 -0.07106259
0.092679225 0.007364048 0.0092926165 0.066261046 0.17440692 -0.06635061 -0.06358276 -0.08518587
-0.07158957 0.035053514 -0.086664766 -0.07302365 0.08895751 -0.06279725 -0.028657371 0.023842936
-0.08147734 -0.05274489 -0.018937105 0.024892041 -0.006122906 -0.2071947 -0.075555764 -0.009612266
-0.020644948 0.033399843 0.0844798 0.046658117 -0.1135058 0.0017821912 -0.0113116875 0.061527766
0.07640177 0.07678128 -0.014065519 -0.0022373693 -0.106732555 0.059403617 -0.08693917 0.08465523
0.11502456 -0.09856236 0.06812569 -0.005019871 -0.069509156 -0.016764408 0.031167807 -0.019531606
0.10211963 0.114612184 -0.059131525 -0.075679496 0.02671806 0.01038166 0.03832377 0.07420827
0.03555486 0.03871991 -0.011533742 0.008477348 -0.07854382 0.009000892 -0.047051344 0.13515079
00000000: b4ed 9d3d 5314 633d 7974 f5b9 b93a 7e3d
00000010: 0e97 d1bc 4579 503d 4c54 27bd a875 f4bd
00000020: 748c ad3b 8f6b c73d 029f bc3d 6d93 bb3c
00000030: adbd 67bc b39b c7bd 9b16 bf3d ca83 b3bd
00000040: 812c 7b3d 4a18 003d 11dc 18bd cef3 93bd
00000050: aa34 323c a8f9 853d ff3c 81bd 83bb cf3d
00000060: 5134 bc3d 7b2f 2c3d d7a9 92bd 12ce cfbc
00000070: 77cb cbbc 5bbc 4abd 32d8 193d 2c26 f0ba
00000080: 3c3a 033c 2bb7 74bd 0d92 1fbd e8d2 473a
00000090: adec b33c 3d93 87bd ea04 143d 6e79 8fbd
000000a0: 118f 8fbd 6c89 da3d 0dfe c1bc f240 c0bc
000000b0: 4735 af3d 970d 603c c748 d13d 5e94 8cbd
000000c0: ffee d23c 9312 41bd 8338 dfbb 883c f53d
000000d0: 4be5 6bbd 2afd 133d afce c23d 20b7 3cbd
000000e0: d16b 53bc 6370 dfbd a8b6 1f3d eb3d ae3d
000000f0: 3435 043c d34a 193d ce47 163e 4389 91bd
00000100: 9bce bd3d 1d4e f13b 0f40 183c dfb3 873d
00000110: ba97 323e d4e2 87bd ae37 82bd ee75 aebd
00000120: 8d9d 92bd 4694 0f3d 4c7d b1bd 6c8d 95bd
00000130: 5b2f b63d d89b 80bd ddc2 eabc 4352 c33c
00000140: 97dd a6bd 070b 58bd fd21 9bbc 65ea cb3c
00000150: a9a2 c8bb d92a 54be fbbc 9abd c47c 1dbc
00000160: 981f a9bc 46ce 083d bf03 ad3d 951c 3f3d
00000170: bb75 e8bd 6a98 e93a a854 39bc 8a04 7c3d
00000180: 8878 9c3d 813f 9d3d 1073 66bc d4a0 12bb
00000190: 9996 dabd 3551 733d 2a0d b2bd b95f ad3d
000001a0: ff91 eb3d 10db c9bd 7b85 8b3d bb7d a4bb
000001b0: d15a 8ebd 8355 89bc a153 ff3c bf00 a0bc
000001c0: 1924 d13d cbb9 ea3d e633 72bd dafd 9abd
000001d0: d5df da3c d717 2a3c 63f9 1c3d 81fa 973d
000001e0: f9a1 113d c598 1e3d 05f8 3cbc 93e4 0a3c
000001f0: 95db a0bd 7a78 133c e9b8 40bd f864 0a3e

fc3.weight f4 [4, 128]
1.6463355 -0.026960118 1.4092311 0.3662856 -0.32800388 -0.09926543 -0.7878246 0.7731049
-0.5921228 -0.2184696 -0.073149525 0.17800944 -0.5434748 -1.2058547 -0.38217732 0.5747052
0.22682701 -0.022389224 0.46884903 -0.76771486 -0.25957707 -0.071098246 -0.66616297 -0.120068945
1.8989211 -1.4101895 1.0568563 0.5238595 0.011469345 -0.5105048 1.0372186 0.78495824
0.756353 -0.75144386 1.3105956 0.98865896 0.611569 -0.22038409 0.4244799 -0.95683247
-0.24992605 -0.097661145 0.17232037 0.40178707 -0.53649503 -0.08448913 -0.22159216 0.9941571
-0.3851865 0.6421727 0.011416128 0.1779466 0.18822558 -0.43081927 -0.45085323 0.6990924
0.62663645 0.6475016 0.18666153 -0.5514891 -0.12230619 -0.086855076 0.0041240673 0.15205555
0.7757344 0.96174026 0.7036433 0.07189977 -0.20721735 0.40616092 0.7973601 1.4132673
-0.19527394 -0.13919291 1.326661 0.14105351 0.23319156 0.96202874 0.14054461 0.20605293
0.28788096 -0.24775253 -0.92842233 0.64092654 0.051615264 -0.5097594 -0.020528618 -0.06779352
-0.067463905 -0.27808505 0.16476427 0.53394145 -0.6198258 -0.449685 0.10592949 -1.0270368
-0.064836845 0.34131348 -0.4830373 -0.80965495 -0.34659493 1.5396842 0.15610409 -0.22800669
0.8782215 -0.46965027 -0.6396748 0.28875455 1.0872626 2.221073 -0.5523705 0.6851187
-0.051133912 0.7268989 0.737737 0.32364002 -0.57462084 -0.2221263 0.2696727 -0.100318946
0.1311191 -0.6430767 -0.017869247 0.61087584 1.2157974 -0.17853528 -0.20212124 -0.09309182
-0.16605602 -0.050986018 0.327617 1.0408658 0.14728579 -0.1181265 0.31646597 -0.088345066
-0.15153751 0.07635778 0.0460087 -0.20716412 -0.44983757 0.22574417 0.38501173 0.25559634
-0.013634381 0.04697328 0.13813207 0.2190279 -0.44953737 -0.1416496 0.970504 -0.25498986
0.22691776 0.7056224 -0.0021560672 -0.4133221 0.0232866 0.03758757 -0.06783432 0.21559006
0.17008439 -0.21167766 -0.2057905 -0.64595354 0.004387899 -1.1116582 0.30797023 -0.28059378
-0.39840782 0.030364344 -0.061687715 0.051460117 0.3065699 -0.14735577 -0.0031869882 0.032013196
-0.058564886 -0.7052377 0.33883992 0.018327013 0.42820224 0.10563719 0.28999513 -0.14918728
0.08404128 -0.5790525 -0.30010673 0.18815762 -0.431208 -0.15984349 0.1893664 0.7212473
-0.65124506 -0.63426346 0.19170424 -0.23384808 -0.38656348 0.39988387 0.24095635 -0.17302532
0.037100803 -0.13824329 0.33048484 0.036192834 0.7021942 -0.06073794 -0.22775675 -0.0025343688
-0.5430018 0.097121075 -0.09127958 0.4419938 -0.0025348158 -0.1801293 0.22529373 0.0514443
-0.56764144 0.13712943 0.19738106 0.088412605 0.22493783 0.4823877 -0.031221624 0.37274355
0.18148519 -0.28909507 0.00886476 -0.033061687 0.091856085 -0.38846618 0.3256043 0.11296739
0.47466576 0.13729982 0.10977515 -0.31790754 0.17008011 -0.2277186 -0.47101825 -0.10539335
0.034038365 0.7648906 -0.28113112 0.69724166 -0.0059090056 0.09453172 0.29276505 -0.08035973
0.071704976 0.019239053 -0.028229382 -0.040555086 0.4763977 0.17306907 0.04284697 -0.12855193
00000000: 1fbb d23f 77db dcbc af61 b43f c989 bb3e
00000010: 20f0 a7be ac4b cbbd dfae 49bf 34ea 453f
00000020: 5c95 17bf 7fb6 5fbe 6bcf 95bd 1b48 363e
00000030: 2a21 0bbf 7259 9abf bfac c3be e11f 133f
00000040: 5745 683e 9b69 b7bc fb0c f03e f688 44bf
00000050: 49e7 84be f59b 91bd a889 2abf b5e6 f5bd
00000060: d90f f33f 1781 b4bf 1147 873f a81b 063f
00000070: ebe9 3b3c 71b0 02bf 94c3 843f 06f3 483f
00000080: 5aa0 413f a05e 40bf 99c1 a73f c118 7d3f
00000090: c98f 1c3f 5eac 61be 6e55 d93e f9f2 74bf
000000a0: 9dec 7fbe 9102 c8bd c074 303e 09b7 cd3e
000000b0: bd57 09bf a308 adbd 0ee9 62be 1481 7e3f
000000c0: 2a37 c5be 6e65 243f b60a 3b3c a237 363e
000000d0: 35be 403e 5894 dcbe 3cd6 e6be b8f7 323f
000000e0: 3f6b 203f aac2 253f 3324 3f3e 642e 0dbf
000000f0: ab7b fabd 13e1 b1bd 2f23 873b 73b4 1b3e
00000100: 8896 463f 9c34 763f f821 343f 3040 933d
00000110: c930 54be 53f4 cf3e cb1f 4c3f f1e5 b43f
00000120: e4f5 47be 9688 0ebe 07d0 a93f 5570 103e
00000130: c5c9 6e3e 8447 763f edea 0f3e 8aff 523e
00000140: 2265 933e d7b2 7dbe 16ad 6dbf c313 243f
00000150: 876a 533d 987f 02bf a22b a8bc 54d7 8abd
00000160: 842a 8abd 2a61 8ebe f7b7 283e 63b0 083f
00000170: e7ac 1ebf 1d3d e6be 8ff1 d83d f175 83bf
00000180: 2ec9 84bd a4c0 ae3e aa50 f7be 8c45 4fbf
00000190: e474 b1be 5f14 c53f c0d9 1f3e 967a 69be
000001a0: 20d3 603f 0076 f0be bac1 23bf a3d7 933e
000001b0: 6c2b 8b3f 0f26 0e40 2768 0dbf f063 2f3f
000001c0: cb71 51bd 0c16 3a3f 55dc 3c3f 25b4 a53e
000001d0: 5a1a 13bf 1475 63be 8a12 8a3e 0574 cdbd
000001e0: 1644 063e ada0 24bf 8762 92bc 5c62 1c3f
000001f0: 409f 9b3f f4d1 36be dff8 4ebe eda6 bebd
00000200: 970a 2abe b7d6 50bd 6abd a73e 173b 853f
00000210: 16d2 163e 4eec f1bd d407 a23e 42ee b4bd
00000220: a62c 1bbe 7861 9c3d 9e73 3c3d d522 54be
00000230: 1c51 e6be 7b29 673e 4220 c53e 86dd 823e
00000240: bd62 5fbc 0e67 403d 7e72 0d3e da48 603e
00000250: c329 e6be 980c 11be f372 783f 088e 82be
00000260: 215d 683e aba3 343f ce4c 0dbb f49e d3be
00000270: 8ac3 be3c 6cf5 193d b8ec 8abd a4c3 5c3e
00000280: 9a2a 2e3e 07c2 58be bfba 52be 365d 25bf
00000290: 5dc8 8f3b d14a 8ebf 46ae 9d3e fda9 8fbe
000002a0: 1cfc cbbe a5be f83c 42ac 7cbd d8c7 523d
000002b0: bbf6 9c3e 6ee4 16be cadc 50bb 4520 033d
000002c0: bce1 6fbd 758a 34bf 6d7c ad3e 8822 963c
000002d0: 533d db3e 5058 d83d 3e7a 943e 8dc4 18be
000002e0: d61d ac3d c93c 14bf 97a7 99be 64ac 403e
000002f0: 4cc7 dcbe 03ae 23be 44e9 413e aaa3 383f
00000300: ffb7 26bf 175f 22bf 1e4e 443e df75 6fbe
00000310: a6eb c5be 94bd cc3e 43bd 763e 8d2d 31be
00000320: 03f7 173d a68f 0dbe 4f35 a93e f03e 143d
00000330: 00c3 333f 59c8 78bd 1139 69be a717 26bb
00000340: 2a02 0bbf 6ae7 c63d caf0 babd 034d e23e
00000350: 271f 26bb d173 38be 66b3 663e 42b7 523d
00000360: f350 11bf a86b 0c3e 431e 4a3e ab11 b53d
00000370: 1a56 663e 85fb f63e 7ec4 ffbc 3ed8 be3e
00000380: 41d7 393e 4504 94be 803d 113c b16b 07bd
00000390: 0b1f bc3d 0ae5 c6be 9bb5 a63e 725b e73d
000003a0: 6407 f33e 5398 0c3e cbd1 e03d c7c4 a2be
000003b0: 7b29 2e3e 112f 69be 4e29 f1be 78d8 d7bd
000003c0: d06b 0b3d dfcf 433f 6bf0 8fbe 6e7e 323f
000003d0: 55a0 c1bb d999 c13d 4de5 953e a493 a4bd
000003e0: 0fda 923d 389b 9d3c 4e41 e7bc 171d 26bd
000003f0: 66ea f33e 0539 313e 4e80 2f3d 1ea3 03be

fc3.bias f4 [4]
-0.04826778 0.12588364 -0.12597513 0.15764695
00000000: 70b4 45bd a4e7 003e a0ff 00be 346e 213e
