weights/checkpoint_critic.pth (torch_old, 86947 bytes, 5 tensors)

fcs1.weight f4 [128, 33]
-0.029083721 0.05223573 0.14593928 0.05851878 0.09146821 0.043556474 0.0017364285 0.036270544
-0.050534964 -0.047129102 0.012313482 0.0057576443 -0.018929934 0.01183501 -0.041048 -0.06274664
-0.04486646 -0.0067533376 0.057526268 -0.012713786 -0.03381894 -0.010093396 -0.038472254 0.08330348
-0.035332486 -0.10365119 0.0078884335 -0.07333783 -0.10738467 0.0015037134 0.10569117 0.001339525
0.21950921 0.119228646 0.1328017 -0.017275076 0.040054657 0.033625394 -0.020288708 -0.06925944
-0.039102547 -0.06441914 -0.018638553 0.02502965 0.025571112 0.0037675472 -0.11829119 -0.14367755
-0.05122675 -0.030368583 -0.025972294 0.023254799 0.019050287 -0.010368734 0.019214364 -0.0024620304
0.016636467 -0.040019814 0.06839154 0.08050218 -0.00068421895 0.16248985 -0.026265137 0.042164166
-0.02673167 -0.6211573 0.008937369 0.09086754 -0.015516036 0.022342313 0.020832352 0.028248722
0.027537132 -0.05784826 0.066338755 -0.047119215 -0.009527582 -0.017961 -0.020253576 -0.031020023
-0.06571448 0.06675291 0.119393215 0.008237068 0.02392019 -0.0013548711 -0.0041213934 -0.0044573885
0.035953436 0.057677142 -0.014531498 -0.011581695 0.12502107 -0.0064356867 -0.05221152 0.07275381
0.0040891827 -0.029444072 0.38400078 -0.077988476 0.01040397 -0.088621676 0.016694264 0.06722486
0.055668697 -0.005196733 0.0056187944 -0.12243155 -0.019403813 -0.012743318 -0.011025924 -0.0050912285
0.02523248 -0.00053796975 0.048795693 -0.010384349 0.0010869381 -0.009905179 0.0057514515 0.0015956988
0.004319681 -0.0066292505 0.0020168684 -0.0040408294 0.009973888 0.025585555 -0.09281827 0.060603403
0.07260551 0.08494534 0.06993937 -1.477039 0.06438664 -0.11908376 -0.020884367 0.00016155829
-0.1706509 0.028599134 0.11153014 -0.03291625 0.04079417 0.057612196 0.023769485 0.0147069
-0.010741923 -0.010136842 0.2467254 0.21052411 0.036202002 0.02483898 -0.043530844 -0.014594054
-0.0012651408 0.020040417 -0.013552058 0.016524721 0.076888055 0.08067398 -0.022308122 -0.013340358
-0.16037016 -0.019509062 -0.06441993 0.03764402 -0.18060276 0.021003408 -0.011634863 -0.046279073
-0.011582366 -0.028545007 -0.03216786 0.02209062 0.02205732 -0.0052694334 0.0033225804 -0.0026930757
-0.007890858 -0.0019614229 -0.016976804 -0.0005584068 0.022516172 0.0057947068 0.0013071082 -0.014215874
-0.017446004 -0.002810973 -0.006427791 0.0040213964 0.008343017 0.0015133304 0.0083533805 -0.0044320384
0.09072014 -0.058668017 -0.042432457 -0.10864305 -0.040599257 1.3124443 0.009502829 -0.10613356
0.10689296 -0.022751454 -0.030250153 -0.016799038 -0.054863777 0.043258626 0.034029227 -0.007624292
-0.028566701 -0.016194263 0.012902946 -0.048359003 0.011697749 -0.07428808 -0.017228773 0.024782721
0.03520262 0.02098043 0.010978943 -0.020433998 -0.0048311492 0.0018643278 -0.011932714 -0.028372433
-0.12555425 -0.18652754 -0.054728307 0.07130288 0.13224114 0.07018002 -0.17609935 0.062213913
-0.015716493 0.06561179 -0.005973254 0.089768365 -0.13174795 0.012392396 0.050027825 0.073328115
0.16838036 -0.024884932 -0.030895311 0.032532856 -0.056439295 -0.032450233 0.029582238 0.00084789697
0.07077948 -0.039329987 -0.014803952 -0.015561024 0.0042193923 -0.021033833 -0.01797349 0.0038765746
00000000: fc40 eebc 22f5 553d 1b71 153e 63b1 6f3d
00000010: af53 bb3d 4668 323d df98 e33a 6c90 143d
00000020: c0fd 4ebd 720a 41bd 7dbe 493c 9faa bc3b
00000030: f312 9bbc a1e7 413c f321 28bd 4f81 80bd
00000040: e5c5 37bd 1a4b ddbb aaa0 6b3d 7c4d 50bc
00000050: bb85 0abd c55e 25bc 1595 1dbd 049b aa3d
00000060: ccb8 10bd 1347 d4bd 7d3e 013c 2532 96bd
00000070: 7eec dbbd 4018 c53a 9d74 d83d 0093 af3a
00000080: 06c7 603e 262e f43d 2bfd 073e 7684 8dbc
00000090: 5a10 243d c8ba 093d 8134 a6bc e5d7 8dbd
000000a0: fe29 20bd 2fee 83bd e1af 98bc fb0a cd3c
000000b0: 827a d13c f4e8 763b a742 f2bd 3520 13be
000000c0: 24d3 51bd 89c7 f8bc d9c3 d4bc d980 be3c
000000d0: 590f 9c3c 9fe1 29bc 7167 9d3c 045a 21bb
000000e0: 3349 883c d1eb 23bd dd10 8c3d 54de a43d
000000f0: 285d 33ba bd63 263e fc29 d7bc 55b4 2c3d
00000100: 60fc dabc 2a04 1fbf 0b6e 123c c318 ba3d
00000110: f936 7ebc 3a07 b73c 9ca8 aa3c dd69 e73c
00000120: 8d95 e13c 4cf2 6cbd 9ddc 873d 1400 41bd
00000130: 9319 1cbc f222 93bc d4ea a5bc b41d febc
00000140: 5095 86bd c0b5 883d 6e84 f43d c4f4 063c
00000150: 46f4 c33c ee95 b1ba c10c 87bb 490f 92bb
00000160: e943 133d de3e 6c3d 8515 6ebc 26c1 3dbc
00000170: 8605 003e 74e2 d2bb bfdb 55bd f3ff 943d
00000180: 8dfe 853b b234 f1bc c09b c43e 6cb8 9fbd
00000190: 6a75 2a3c 487f b5bd 69c2 883c 30ad 893d
000001a0: dc04 643d 5b49 aabb dd1d b83b 64bd fabd
000001b0: bff4 9ebc 5ac9 50bc 14a6 34bc 52d4 a6bb
000001c0: 59b4 ce3c 8a06 0dba fedd 473d 1e23 2abc
000001d0: 9777 8e3a 5549 22bc ac76 bc3b c426 d13a
000001e0: 1c8c 8d3b 2f3a d9bb 702d 043b ef68 84bb
000001f0: 8569 233c cc98 d13c 8117 bebd 463b 783d
00000200: 33b2 943d d3f7 ad3d 5f3c 8f3d 9d0f bdbf
00000210: 25dd 833d 30e2 f3bd b115 abbc f967 2939
00000220: 1cbf 2ebe bb48 ea3c ea69 e43d 31d3 06bd
00000230: ca17 273d c4fa 6b3d 39b8 c23c 36f5 703c
00000240: e4fe 2fbc ff14 26bc 95a5 7c3e a293 573e
00000250: 8d48 143d 1e7b cb3c 664d 32bd e61b 6fbc
00000260: 15d3 a5ba cd2b a43c 7309 5ebc da5e 873c
00000270: 7c77 9d3d 6638 a53d 86bf b6bc 8491 5abc
00000280: 1338 24be 78d1 9fbc 99ee 83bd 9e30 1a3d
00000290: eeef 38be 570f ac3c 27a0 3ebc 208f 3dbd
000002a0: f7c3 3dbc 38d7 e9bc 72c2 03bd 63f7 b43c
000002b0: 8eb1 b43c 36ab acbb a6bf 593b 507e 30bb
000002c0: a848 01bc 378b 00bb f012 8bbc 0c62 12ba
000002d0: d673 b83c 86e1 bd3b 4653 ab3a b2e9 68bc
000002e0: ecea 8ebc 4d38 38bb 38a0 d2bb ebc5 833b
000002f0: 26b1 083c f15a c63a 9edc 083c a23a 91bb
00000300: 7bcb b93d e04d 70bd a8cd 2dbd 3f80 debd
00000310: 684b 26bd 2dfe a73f c1b1 1b3c 8d5c d9bd
00000320: b2ea da3d 4261 babc 2bcf f7bc 239e 89bc
00000330: d7b8 60bd f52f 313d 3b62 0b3d 32d5 f9bb
00000340: b704 eabc d5a9 84bc e166 533c 1714 46bd
00000350: eaa7 3f3c 5924 98bd 5b23 8dbc 2205 cb3c
00000360: 9f30 103d 27df ab3c 06e1 333c 3365 a7bc
00000370: 9e4e 9ebb 765c f43a 6e81 43bc 4e6d e8bc
00000380: 4b91 00be 1301 3fbe ca2a 60bd 3f07 923d
00000390: 396a 073e 8bba 8f3d 6353 34be 04d4 7e3d
000003a0: e0bf 80bc 795f 863d 49bb c3bb 7ad8 b73d
000003b0: efe8 06be 7a09 4b3c fae9 4c3d 0d2d 963d
000003c0: e76b 2c3e 7cdb cbbc 2a18 fdbc 2c41 053d
000003d0: e42c 67bd 89ea 04bd 7356 f23c 6745 5e3a
000003e0: d5f4 903d 7b18 21bd 468c 72bc aaf3 7ebc
000003f0: d442 8a3b 254f acbc 243d 93bc 210e 7e3b

fcs1.bias f4 [128]
-0.05937351 -0.17350937 0.18873627 0.14313124 -0.07039937 -0.23240748 0.2860157 -0.21354502
-0.035472047 -0.11016437 0.067638755 -0.01569533 -0.08332074 -0.061938655 0.11342743 -0.28165725
0.0026520488 -0.072803326 -0.12080496 0.14050607 0.11437325 -0.07176338 0.15224952 -0.057005886
0.124310784 -0.17910564 0.18365261 -0.0014622686 -0.009545978 -0.06327166 -0.0012589777 -0.16102514
-0.008251518 0.09354049 -0.017200973 0.07223101 -0.12830691 -0.013403325 -0.14686199 0.051960617
-0.20857853 0.08151857 -0.2806194 -0.07391904 -0.1890473 -0.060482107 0.016713785 -0.05204175
-0.121627934 -0.106898144 -0.13050994 -0.14702876 0.17464764 -0.12874578 -0.20625728 0.11576229
0.002943526 -0.12982646 -0.071766905 -0.18827467 0.0010386123 -0.05053662 0.010543971 0.052989457
-0.12084387 -0.01148944 -0.25642186 0.09247005 0.014072531 -0.117230184 0.0059236893 -0.12121026
-0.17431304 -0.014572066 -0.23353454 0.15637244 -0.0127846785 -0.14919335 0.019876285 0.026897563
-0.026954396 0.048482127 -0.10681048 -0.18159851 0.03099019 -0.11787796 -0.060661245 -0.03224329
-0.052032284 0.004965893 -0.20260936 0.023143431 -0.09203205 -0.026378714 0.16858023 -0.17283215
0.087329015 0.0858325 0.025458349 -0.000227536 -0.18093742 0.12034963 -0.1334144 -0.12132913
-0.016093375 0.12233274 0.023246832 -0.19701114 0.10693202 0.09693841 -0.20917343 -0.084536396
-0.25018173 -0.28616333 -0.030380944 0.061100885 0.018001832 -0.023288934 -0.032841206 -0.1424273
0.11332237 0.0882124 -0.17522329 -0.0102382125 -0.1463513 0.0105456915 -0.13605961 -0.05083155
00000000: a331 73bd 71ac 31be 1544 413e ff90 123e
00000010: 8b2d 90bd 3afc 6dbe a670 923e 8cab 5abe
00000020: 234b 11bd db9d e1bd 3086 8a3d 7e93 80bc
00000030: 10a4 aabd 63b3 7dbd a44c e83d 6135 90be
00000040: ffcd 2d3b e919 95bd 9768 f7bd d3e0 0f3e
00000050: 863c ea3d aef8 92bd 4ce7 1b3e 017f 69bd
00000060: a796 fe3d 7867 37be 6e0f 3c3e 98a9 bfba
00000070: bc66 1cbc 9294 81bd 4804 a5ba c6e3 24be
00000080: 6031 07bc 2892 bf3d 0ee9 8cbc daed 933d
00000090: e362 03be 9f99 5bbc fd62 16be a8d4 543d
000000a0: 9c95 55be 35f3 a63d 59ad 8fbe de62 97bd
000000b0: 9e95 41be 16bc 77bd 59eb 883c bb29 55bd
000000c0: 1118 f9bd 6aed dabd 66a4 05be b58e 16be
000000d0: d5d6 323e efd5 03be 1c35 53be c814 ed3d
000000e0: 2ce8 403b 3af1 04be 87fa 92bd 13cb 40be
000000f0: 0c22 883a 7dff 4ebd 9fc0 2c3c 790b 593d
00000100: fe7c f7bd 343e 3cbc ba49 83be f060 bd3d
00000110: 7990 663c 6116 f0bd 821b c23b 163d f8bd
00000120: 1e7f 32be adbf 6ebc ae23 6fbe 1920 203e
00000130: d476 51bc 24c6 18be 97d3 a23c 4758 dc3c
00000140: 77cf dcbc 3295 463d 74bf dabd f6f4 39be
00000150: 24df fd3c 006a f1bd ed77 78bd 8a11 04bd
00000160: ce1f 55bd eeb8 a23b d478 4fbe 4b97 bd3c
00000170: 4d7b bcbd 2c18 d8bc 4ca0 2c3e e9fa 30be
00000180: 8ed9 b23d f3c8 af3d 078e d03c bb96 6eb9
00000190: a947 39be de79 f63d c99d 08be 687b f8bd
000001a0: 41d6 83bc 9689 fa3d 2470 be3c 4abd 49be
000001b0: 2dff da3d a587 c63d 8f31 56be 6b21 adbd
000001c0: d217 80be 0084 92be 75e1 f8bc ec44 7a3d
000001d0: 9478 933c 6fc8 bebc 8084 06bd 76d8 11be
000001e0: 8f15 e83d b4a8 b43d bc6d 33be 2dbe 27bc
000001f0: 1ddd 15be d6c7 2c3c 3653 0bbe be34 50bd

fc2.weight f4 [128, 132]
-0.0016829284 0.12133419 -0.038286414 -0.11051486 -0.12665458 -0.13918069 0.0038842577 -0.014100847
0.13494344 -0.15404452 0.016635692 -0.19512127 0.008838494 0.10336137 -0.013795369 -0.18026395
0.08130916 0.03345653 -0.1555431 -0.09223052 0.13101047 -0.006521517 0.07544479 0.08227659
-0.13697767 0.014093501 0.060429472 -0.030649688 -0.00090980757 0.094910815 0.11918899 -0.007889299
0.03678966 -0.0107132625 -0.36588132 0.14484744 -0.12937099 -0.0014999239 -0.11532709 -0.11712928
0.31917444 0.088982284 0.103496425 -0.042567678 -0.023033442 0.06756619 -0.088245854 0.027584627
-0.16783762 0.003981236 -0.08891392 0.06622691 0.0018658706 -0.15556042 -0.07823067 0.08508306
-0.3522547 -0.14787099 0.034986075 -0.20501968 0.03743363 0.055514082 0.1874041 -0.12275425
-0.030812483 0.06871949 -0.18566212 -0.023667075 -0.4654046 0.012686703 0.0042926944 0.12339466
0.03987213 -0.016596526 -0.029982515 0.12261659 -0.004356599 0.008517605 -0.03360362 -0.07675006
-0.04280179 -0.020879388 -0.09056975 -0.06307541 -0.016240822 -0.027214317 -0.07915937 -0.008008971
0.10930509 -0.36370137 0.023170684 0.064726785 0.029422496 -0.0006759722 0.064209506 -0.052368414
0.106208585 0.065797165 -0.026225166 0.06715967 -0.10581185 -0.06705463 -0.048662875 0.021327646
-0.047411878 0.115688 -0.042969644 0.0077539226 0.023212364 0.01690885 -0.044979475 0.06719183
-0.02941667 0.015052636 -0.09832344 -0.06037196 -0.077347144 0.019036656 -0.016493041 0.0011585435
0.09374793 0.10935545 0.100771904 -0.025248764 -0.11444023 0.06358998 -0.11183554 0.06888027
-7.596999e-05 0.040892377 -0.012788162 0.0064146286 -0.06809344 -0.16460557 -0.10937557 0.0027864252
0.03160228 0.16656953 0.045022655 0.13453789 -0.0856122 -0.0111669935 0.053873938 -0.10370156
0.05402494 -0.02482462 0.06764538 0.017333074 -0.20682757 -0.19299248 0.035720248 -0.18281268
0.05347801 0.022483049 -0.120050706 -0.08629749 0.086906806 -0.099140175 -0.0044737817 -0.017752906
0.047488533 0.28204095 -0.06291447 -0.09111894 -0.0008308566 -0.0067353128 -0.38494897 0.055437677
0.08084173 0.115907975 0.08614727 0.06909795 0.30335897 0.066285476 -0.024793327 0.10344407
-0.018957393 0.029070988 0.14812243 -0.03598025 -0.118451886 0.07751995 -0.07631415 -0.03398797
0.08606611 0.15310204 -0.1123819 -0.14706115 -0.6009369 0.056967802 -0.3087876 -0.033625565
-0.11645187 -0.19506776 0.083466195 0.02276302 0.10001396 -0.31975025 0.075464286 0.038465597
0.04708545 -0.05452026 0.12639923 -0.076945394 -0.017758837 0.012474207 0.051495086 0.03905368
0.19447897 -0.1277641 -0.13467744 0.16442175 -0.3135918 -0.018596824 0.02943755 -0.1429583
-0.13575773 -0.08403443 0.10872936 -0.14947909 -0.110092126 0.0592834 -0.057727292 -0.124281265
0.06911547 -0.15574107 -0.007484423 -0.20562933 -0.15403903 -0.024607055 0.07224875 -0.08363392
0.1753819 0.15288784 0.047925718 -0.1843167 0.03374415 0.021359611 0.014689817 0.092345126
0.021777693 -0.02348643 -0.011794676 0.08361051 0.03602184 -0.0323115 -0.009853057 0.11500694
-0.06699286 0.03152814 -0.14103247 -0.00296939 -0.105430424 -0.11456585 -0.17676717 0.017883271
00000000: b595 dcba 0f7e f83d 37d2 1cbd 9d55 e2bd
00000010: bdb1 01be 6285 0ebe 088f 7e3b 3d07 67bc
00000020: 9d2e 0a3e d9bd 1dbe 9347 883c dfcd 47be
00000030: 55cf 103c 20af d33d f905 62bc 1d97 38be
00000040: 6b85 a63d b709 093d b146 1fbe 5be3 bcbd
00000050: 9c27 063e 73b2 d5bb cc82 9a3d a180 a83d
00000060: e043 0cbe 6de8 663c e584 773d 0e15 fbbc
00000070: 2780 6eba 9a60 c23d 5b19 f43d 1e42 01bc
00000080: c1b0 163d ae86 2fbc cc54 bbbe e352 143e
00000090: d479 04be 1899 c4ba 9c30 ecbd 7ae1 efbd
000000a0: d56a a33e 583c b63d eff5 d33d 725b 2ebd
000000b0: a1b0 bcbc 2560 8a3d 3eba b4bd 28f9 e13c
000000c0: a0dd 2bbe 0775 823b 8018 b6bd f9a1 873d
000000d0: 3a90 f43a 3b4b 1fbe 6737 a0bd 0740 ae3d
000000e0: ba5a b4be 7e6b 17be 8f4d 0f3d aef0 51be
000000f0: 0254 193d bc62 633d dce6 3f3e 9566 fbbd
00000100: 766a fcbc cebc 8c3d 361e 3ebe 74e1 c1bc
00000110: 8349 eebe e4db 4f3c bba9 8c3b 57b6 fc3d
00000120: f550 233d 70f5 87bc e49d f5bc 681e fb3d
00000130: cdc1 8ebb 6d8d 0b3c f3a3 09bd 232f 9dbd
00000140: ee50 2fbd 400b abbc a27c b9bd ae2d 81bd
00000150: 790b 85bc 8ff0 debc 4f1e a2bd 0f38 03bc
00000160: 59db df3d 1137 babe 72d0 bd3c 7a8f 843d
00000170: 7207 f13c ba33 31ba 4680 833d 4380 56bd
00000180: e383 d93d aac0 863d 29d6 d6bc 028b 893d
00000190: e2b3 d8bd f053 89bd b952 47bd 51b7 ae3c
000001a0: f532 42bd d5ed ec3d f000 30bd 9e14 fe3b
000001b0: db27 be3c 6e84 8a3c 663c 38bd df9b 893d
000001c0: 3afb f0bc 559f 763c cd5d c9bd 9748 77bd
000001d0: 2e68 9ebd c3f2 9b3c 6a1c 87bc 45da 973a
000001e0: eafe bf3d c0f5 df3d 8061 ce3d 7fd6 cebc
000001f0: a45f eabd 773b 823d 080a e5bd 1911 8d3d
00000200: 1452 9fb8 c47e 273d 7085 51bc ce31 d23b
00000210: 9374 8bbd 5d8e 28be 4d00 e0bd 759c 363b
00000220: 6471 013d 3491 2a3e ad69 383d 4dc4 093e
00000230: 7355 afbd c4f5 36bc ebaa 5c3d 7c61 d4bd
00000240: 4149 5d3d 005d cbbc a989 8a3d 17fe 8d3c
00000250: 9bca 53be d29f 45be 654f 123d 3f33 3bbe
00000260: c20b 5b3d 5f2e b83c 25dd f5bd bdbc b0bd
00000270: 32fc b13d 010a cbbd cd98 92bb 8b6e 91bc
00000280: 5683 423d ac67 903e 4dd9 80bd 919c babd
00000290: d8cd 59ba e6b3 dcbb 0818 c5be 9e12 633d
000002a0: 5990 a53d 2961 ed3d fb6d b03d 3a83 8d3d
000002b0: de51 9b3e aec0 873d 601b cbbc 7cda d33d
000002c0: 894c 9bbc 4826 ee3c 68ad 173e 0760 13bd
000002d0: e796 f2bd c8c2 9e3d 984a 9cbd f836 0bbd
000002e0: 6e43 b03d c8c6 1c3e 7b28 e6bd 3397 16be
000002f0: 00d7 19bf 1257 693d 6919 9ebe f6ba 09bd
00000300: 517e eebd d8bf 47be 53f0 aa3d 8379 ba3c
00000310: 1ed4 cc3d 4eb6 a3be 058d 9a3d 1a8e 1d3d
00000320: acdc 403d a350 5fbd cd6e 013e 8c95 9dbd
00000330: fb7a 91bc 9e60 4c3c 83ec 523d c0f6 1f3d
00000340: 7f25 473e 98d4 02be e2e8 09be 2d5e 283e
00000350: 1b8f a0be 5e58 98bc 0427 f13c a963 12be
00000360: 1304 0bbe 3e1a acbd 80ad de3d 0c11 19be
00000370: fb77 e1bd 27d3 723d 7473 6cbd 2d87 febd
00000380: 698c 8d3d 967a 1fbe e43f f5bb 7f90 52be
00000390: 68bc 1dbe bc94 c9bc 27f7 933d 4348 abbd
000003a0: 5097 333e a18e 1c3e c24d 443d 84bd 3cbe
000003b0: 4e37 0a3d 5afa ae3c 8fad 703c 711f bd3d
000003c0: 2267 b23c 9d66 c0bc 753e 41bc fd3b ab3d
000003d0: a38b 133d 1059 04bd b76e 21bc c288 eb3d
000003e0: 8d33 89bd a723 013d d16a 10be 199a 42bb
000003f0: e8eb d7bd 80a1 eabd 7402 35be f07f 923c

fc2.bias f4 [128]
0.18868494 0.096000485 0.09693959 0.2432056 0.23288083 -0.067708544 -0.006131708 0.0793772
0.0776458 0.09424023 0.104164824 0.11203615 -0.100988805 -0.10672117 0.0628137 0.07817436
0.0036737826 0.12711072 -0.08207894 -0.053549387 -0.0943219 -0.0954189 -0.0460829 0.2682637
0.042083815 0.18104552 -0.024682075 0.19954401 0.11694927 0.1901116 0.0032793577 0.014948933
-0.06181845 0.08833286 0.23216736 0.10737955 0.19397698 0.15062091 -0.0048189755 0.07277868
0.23349229 -0.12908365 0.21825598 -0.17362854 -0.11853508 0.08134491 -0.084801406 0.2087559
0.2021749 -0.042057045 0.21774255 0.016821576 0.2152744 -0.011543963 -0.050324317 0.20241265
-0.042320594 -0.0426435 -0.07618705 -0.20265616 0.184304 0.18150927 0.15286703 0.038916674
0.17588995 -0.03381819 -0.007322901 -0.15433703 -0.053331785 -0.15660822 -0.085728094 -0.1796269
0.034707345 0.27663323 -0.121045 0.22066863 0.10642706 0.111294776 -0.013206493 0.06024478
-0.07194384 -0.03661803 0.05317362 -0.079989105 -0.07052534 -0.119828776 0.16166806 -0.023238491
-0.1296884 -0.024486626 -0.13042447 -0.10689723 0.2880703 0.19169286 0.1265306 0.024706755
0.3081874 0.19695239 -0.120919034 -0.15723644 0.056511372 -0.11137144 0.14971028 0.045696754
0.063632205 -0.06480223 -0.0043375567 -0.13292734 -0.18062527 0.08929141 -0.20947921 -0.067017995
0.012830575 0.23762439 -0.061553136 -0.067850366 0.09654348 -0.093939796 0.10448216 0.00022855733
-0.01932578 -0.01098673 0.13803652 -0.06310273 0.23779838 0.005453917 0.047043893 -0.08861421
00000000: a036 413e e79b c43d 4488 c63d e40a 793e
00000010: 5078 6e3e c7aa 8abd 7fec c8bb 8390 a23d
00000020: c304 9f3d 0601 c13d 5e54 d53d 3673 e53d
00000030: 38d3 cebd a190 dabd 78a4 803d e119 a03d
00000040: d8c3 703b 5029 023e 0119 a8bd 9a56 5bbd
00000050: d72b c1bd fc6a c3bd 6cc1 3cbd dc59 893e
00000060: 1460 2c3d ff63 393e 1032 cabc 4455 4c3e
00000070: 1983 ef3d 9eac 423e 7eea 563b 5fec 743c
00000080: 5835 7dbd dce7 b43d 48bd 6d3e cfe9 db3d
00000090: e7a1 463e 5e3c 1a3e 7fe8 9dbb fd0c 953d
000000a0: 9a18 6f3e 812e 04be 7f7e 5f3e aecb 31be
000000b0: 85c2 f2bd 2998 a63d 5cac adbd 1bc4 553e
000000c0: f006 4f3e 0244 2cbd e7f7 5e3e 67cd 893c
000000d0: e470 5c3e e422 3dbc df20 4ebd 4345 4f3e
000000e0: 5c58 2dbd f3aa 2ebd f507 9cbd 1985 4fbe
000000f0: 30ba 3c3e 91dd 393e 2d89 1c3e 1767 1f3d
00000100: 7f1c 343e f184 0abd f2f4 efbb 870a 1ebe
00000110: 6e72 5abd e85d 20be 3692 afbd 1df0 37be
00000120: 4a29 0e3d dfa2 8d3e 71e6 f7bd f5f6 613e
00000130: 6ef6 d93d 84ee e33d 0c60 58bc 3bc3 763d
00000140: 4b57 93bd cafc 15bd 95cc 593d 54d1 a3bd
00000150: 976f 90bd ca68 f5bd 508c 253e a65e bebc
00000160: 09cd 04be 2d98 c8bc fe8d 05be efec dabd
00000170: f37d 933e 224b 443e 3d91 013e d265 ca3c
00000180: bdca 9d3e e3ad 493e 66a4 f7bd 9702 21be
00000190: 7878 673d b616 e4bd a74d 193e 852c 3b3d
000001a0: 9a51 823d 08b7 84bd 1022 8ebb 1b1e 08be
000001b0: d5f5 38be 6ade b63d b881 56be bb40 89bd
000001c0: 5537 523c cf53 733e 241f 7cbd 22f5 8abd
000001d0: 97b8 c53d 8263 c0bd befa d53d e4a8 6f39
000001e0: 1951 9ebc b001 34bc 7259 0d3e 013c 81bd
000001f0: 6b81 733e c6b6 b23b 19b1 403d 5e7b b5bd

fc3.weight f4 [1, 128]
0.11835521 0.09471848 0.13093208 0.143253 0.13884404 -0.22598678 -0.113290004 0.12664111
0.18962613 0.20063946 0.15908267 0.20973127 -0.10783108 0.19455206 0.16519034 0.17480882
0.14310925 0.09570446 -0.110987954 -0.1990092 0.07743677 -0.36564806 -0.1268263 0.17969285
0.13643698 0.2415473 0.10487159 0.18920627 0.28426853 0.1260361 -0.09180919 -0.25729156
-0.16188198 0.14950915 0.21605983 0.15913092 0.10083613 0.20226574 -0.13007265 0.16694862
0.15104608 -0.14187813 0.23949821 -0.2141125 -0.13111022 0.109655276 0.1594853 0.18496828
0.11761011 -0.21852528 0.15048523 0.2018619 0.23159182 -0.14419329 -0.2098139 0.23333076
-0.27820358 0.10956866 -0.20353308 -0.32277194 0.16954197 0.15054907 0.17293455 0.124258295
0.096444726 -0.22115539 -0.20331433 -0.107431315 0.10698167 -0.1594868 -0.18206581 -0.16026872
0.24986243 0.15598795 -0.17418648 0.13486755 0.1253192 0.20581934 -0.42945635 0.2625358
-0.3562256 -0.2590447 -0.1522096 -0.14402038 -0.075624004 -0.17864478 0.103968576 -0.123251036
-0.18528138 -0.2149461 -0.08875245 -0.12759048 0.14798875 0.22211854 0.18350212 0.074486956
0.20354643 0.19499858 -0.11562974 -0.23136668 -0.186073 -0.18624447 0.20201474 0.11910962
0.09587092 -0.20999813 0.23538257 -0.117417686 -0.2602484 0.1221352 -0.15513694 0.15616775
-0.18069546 0.17778128 -0.10964528 -0.095660254 0.046831235 -0.08289353 0.11560079 -0.100954175
0.23217826 -0.2732004 0.16053532 -0.3901062 0.12815045 -0.2503398 0.11909972 -0.12287961
00000000: 3764 f23d c3fb c13d 0f13 063e eab0 123e
00000010: 222d 0e3e 1469 67be 9704 e8bd 35ae 013e
00000020: 5a2d 423e 6e74 4d3e 91e6 223e cbc3 563e
00000030: 8bd6 dcbd a838 473e a827 293e 1501 333e
00000040: 3b8b 123e b300 c43d a74d e3bd 11c9 4bbe
00000050: 2b97 9e3d 3936 bbbe c1de 01be 6701 383e
00000060: 23b6 0b3e 2d58 773e ebc6 d63d 4abf 413e
00000070: a58b 913e 9b0f 013e 7506 bcbd b8bb 83be
00000080: 64c4 25be ed18 193e ca3e 5d3e 37f3 223e
00000090: 2c83 ce3d c01e 4f3e c431 05be 94f4 2a3e
000000a0: d3ab 1a3e 8048 11be 053f 753e 4f40 5bbe
000000b0: c241 06be f292 e03d 1d50 233e 5368 3d3e
000000c0: 92dd f03d 17c5 5fbe cd18 1a3e e3b4 4e3e
000000d0: 6826 6d3e 68a7 13be 74d9 56be 42ee 6e3e
000000e0: b370 8ebe 8965 e03d fa6a 50be 5d42 a5be
000000f0: 699c 2d3e 8929 1a3e c115 313e 227b fe3d
00000100: d084 c53d 8f76 62be a231 50be f304 dcbd
00000110: 3519 db3d 8250 23be 766f 3abe 7c1d 24be
00000120: f0db 7f3e 4ebb 1f3e f15d 32be b81a 0a3e
00000130: ad53 003e 4ec2 523e b4e1 dbbe 186b 863e
00000140: 3463 b6be 82a1 84be d5dc 1bbe 147a 13be
00000150: c2e0 9abd a8ee 36be 7aed d43d 0a6b fcbd
00000160: 67ba 3dbe d51a 5cbe d8c3 b5bd 14a7 02be
00000170: 5d8a 173e 0b73 633e fbe7 3b3e 9e8c 983d
00000180: 7a6e 503e b5ad 473e 49cf ecbd 63eb 6cbe
00000190: ec89 3ebe dfb6 3ebe f4dc 4e3e bfef f33d
000001a0: f957 c43d c009 57be 2108 713e af78 f0bd
000001b0: 473f 85be 0522 fa3d 38dc 1ebe 70ea 1f3e
000001c0: 3b08 39be 4c0c 363e b48d e0bd 86e9 c3bd
000001d0: 1cd2 3f3d 15c4 a9bd 1bc0 ec3d 10c1 cebd
000001e0: 23c0 6d3e ece0 8bbe 5f63 243e 00bc c7be
000001f0: df39 033e 8a2c 80be 8eea f33d 4ea8 fbbd
